experiments/models/halfplanes-5.1351e-05-1643478450.pth (torch, 2683 bytes, 4 tensors)

weight f4 [4, 2]
-4.969276 5.442816 5.58143 -5.615889 -5.714952 4.222391 5.8181586 5.817428
00000000: 4f04 9fc0 8c2b ae40 139b b240 5db5 b3c0
00000010: e3e0 b6c0 d41d 8740 5b2e ba40 5f28 ba40

bias f4 [4]
-0.084020376 0.09409762 0.73366165 -5.801884
00000000: e012 acbd 41b6 c03d 40d1 3b3f 09a9 b9c0

weight f4 [3, 4]
28.59269 -52.656857 13.571616 0.7161843 -1.1006285 0.5597228 2.0400646 -120.91717
-1.0355936 -0.76253814 -0.21337563 -0.22703828
00000000: d4bd e441 9fa0 52c2 5725 5941 db57 373f
00000010: 65e1 8cbf fe49 0f3f 6b90 0240 97d5 f1c2
00000020: 558e 84bf b335 43bf 247f 5abe b97c 68be

bias f4 [3]
0.079385005 1.3628064 17.102749
00000000: 9b94 a23d 7170 ae3f 6ed2 8841
