experiments/models/midcircle-unconstained-6.4456e-05-1652226558.pth (torch, 2771 bytes, 4 tensors)

weight f4 [3, 2]
0	0x419876e1	19.058046
1	0x3efc821d	0.4931802
2	0x41aa3dc8	21.280167
3	0xbf3a685c	-0.7281549
4	0x40b3a163	5.6134505
5	0xc2f70697	-123.51287

bias f4 [3]
0	0xc0b8583d	-5.7607713
1	0xc167e200	-14.492676
2	0x420ca623	35.162243

weight f4 [3, 3]
0	0xc051ede4	-3.2801447
1	0xc2b00ef4	-88.029205
2	0x4015b473	2.3391387
3	0x4061017a	3.5157151
4	0xc053b800	-3.3081055
5	0xc0847ae2	-4.1400003
6	0x42a14808	80.640686
7	0x404abdd2	3.1678357
8	0x4012f6b5	2.2963078

bias f4 [3]
0	0xc2a4c164	-82.377716
1	0xc12d47a0	-10.829987
2	0xc2965c44	-75.18021
