experiments/models/midcircle-0.00022453-1643478602.pth (torch, 3521 bytes, 6 tensors)

weight f4 [4, 2]
000000 d6 c2 70 40 aa f3 b3 c0 38 99 4a c0 4a 5c 31 3f
       3.7618918 -5.623494 -3.1656017 0.69281447
000010 0f 01 33 40 c1 98 c6 3e 30 eb 4d 40 e7 7f f5 40
       2.7969396 0.38788417 3.2174797 7.671863

bias f4 [4]
000000 39 c7 fb 3f 19 b2 94 3f d5 25 c5 bf 73 1a 7e c0
       1.9670173 1.1616851 -1.540217 -3.9703643

weight f4 [4, 4]
000000 58 8c d7 3f e6 17 df 3f 88 e8 3d 3f 88 d6 84 3f
       1.6839705 1.7429168 0.7418294 1.037797
000010 75 43 15 c0 e7 3f 70 c0 86 42 d8 40 60 a1 30 c0
       -2.3322423 -3.7539003 6.7581205 -2.7598495
000020 9f 30 7f c0 86 47 36 c0 21 ae 64 40 47 dc 6e c0
       -3.9873426 -2.8481154 3.573128 -3.7321947
000030 cb c0 df bf 10 3b fd 3f 18 07 e0 bf 59 68 0b c0
       -1.7480711 1.978365 -1.7502165 -2.1782439

bias f4 [4]
000000 b5 bd ea 40 a9 84 11 bf 37 3c 6c 40 00 f7 e2 3e
       7.3356576 -0.5684305 3.6911752 0.4432907

weight f4 [3, 4]
000000 da 02 5d 3f 74 43 af c1 f4 35 3a c0 61 a8 bd 41
       0.86332476 -21.907936 -2.909543 23.707216
000010 3f 23 fc c0 29 6d ee c0 61 b8 62 c1 82 15 94 c1
       -7.8793025 -7.450825 -14.170014 -18.510502
000020 8b 61 e5 c0 e0 b8 d1 40 7b 0a f0 bf 6a e6 d7 c0
       -7.168157 6.5538177 -1.8753198 -6.7468767

bias f4 [3]
000000 93 ac c2 3f 7c 7b f4 c0 ff 97 93 c0
       1.5208915 -7.640074 -4.612304
