experiments/models/midcircle-0.00026368-1652206067.pth (torch, 2771 bytes, 4 tensors)

weight f4 [4, 2]
00000000: 801d 4b3d 0ee3 b63e 1e0c acbe 82a4 013f
00000010: 66ad 3ebf 5d67 dcbe 2eee cc3c 824d cb3d
0.04958868 0.35720104 -0.33602995 0.50641644 -0.74483335 -0.4304761 0.025015917 0.09926893

bias f4 [4]
00000000: 16fa f63e d829 babe d431 bfbc 32ac 33bf
0.48237675 -0.3636005 -0.02333919 -0.70184624

weight f4 [3, 4]
00000000: b283 b03e 84a2 74bd 601b 5fbe c8a8 d4be
00000010: 9885 cfbe c025 2b3e b812 d4bd 4c14 69be
00000020: 1516 bcbe 713f 913e d32e ebbe c61a b5be
0.34475476 -0.0597253 -0.21787786 -0.4153502 -0.4053161 0.16713619 -0.10355133 -0.22761649
-0.36735597 0.28368714 -0.45934162 -0.3537199

bias f4 [3]
00000000: 6e81 0cbe fc1f 96be 22b4 bcbe
-0.13721249 -0.29321277 -0.3685618
