experiments/models/midcircle-unconstained-5.0961e-06-1652212652.pth (torch, 2771 bytes, 4 tensors)

weight f4 [4, 2]
00000000: 02be c83e 1448 b5c1 c22b d641 e5a7 90be
00000010: df01 043f a6de ae41 b317 e041 89fb 643e
0.39207464 -22.660194 26.771366 -0.28253093 0.51565355 21.858715 28.011572 0.22361578

bias f4 [4]
00000000: fb61 6241 efe6 0fc1 57a3 04c1 210d 93c1
14.148921 -8.99388 -8.289878 -18.38141

weight f4 [3, 4]
00000000: d642 5bc2 81bd 5fc2 8c9c 57c2 6746 91c2
00000010: 772a 2c42 8af7 3142 95ca 2a42 4819 2bc2
00000020: 4297 4fc2 877f 8242 48fd 4bc2 78fc 4b42
-54.81527 -55.935062 -53.902878 -72.637505 43.04147 44.491737 42.697834 -42.77469
-51.897713 65.24908 -50.997345 50.99655

bias f4 [3]
00000000: 3501 0fc1 7173 b9c2 2b20 e3c0
-8.937795 -92.72547 -7.0976768
