experiments/models/midcircle-0.00025664-1652205818.pth (torch, 2771 bytes, 4 tensors)

weight f4 [4, 2]
000000 07 1c 41 3f 03 65 11 bf fe 6c 95 3c 61 17 41 3e
       0.7543339 -0.56794757 0.018240448 0.18856575
000010 72 ab 10 bf 39 a2 23 bf b1 cb 0b bf be 5c ce 3e
       -0.56511605 -0.6391941 -0.54607683 0.40305132

bias f4 [4]
000000 5d d9 48 3f 62 96 47 3e 99 1f 95 3e c6 47 90 be
       0.7845667 0.1949096 0.2912567 -0.2817976

weight f4 [3, 4]
000000 56 49 e4 be 00 0c ef 3d d5 dc 03 3f 7c 8d c2 be
       -0.445872 0.11672211 0.5150884 -0.3799857
000010 3d 86 f5 be 5a e8 3a 3e 6a 1d 86 3e aa a6 76 3e
       -0.47953978 0.18252698 0.26194316 0.24087015
000020 b4 cd 21 be 7d 6c 94 3e 82 5b c4 be d4 57 61 bd
       -0.15801126 0.2898902 -0.38351065 -0.0550154

bias f4 [3]
000000 fe 72 99 3b 72 a8 90 3d 72 a8 c1 3c
       0.0046828976 0.070633784 0.023639891
