experiments/models/midcircle-rev-3.3546e-06-1652215358.pth (torch, 2771 bytes, 4 tensors)

weight f4 [4, 2]
-10.6036625 -0.3456218 -5.01159 0.029899588 5.227414 -6.817507 3.5761852 8.133646
00000000: 9aa8 29c1 57f5 b0be f25e a0c0 fbef f43c
00000010: fa46 a740 0429 dac0 38e0 6440 6a23 0241

bias f4 [4]
4.29812 3.1161537 -0.022601515 -7.0307527
00000000: 338a 8940 106f 4740 d026 b9bc edfb e0c0

weight f4 [3, 4]
25.385223 125.09409 5.0393834 3.408096 -58.23136 -9.025041 -66.13994 -70.3689
-97.73382 -27.694098 7.317247 -5.09041
00000000: f014 cb41 2d30 fa42 a142 a140 3f1e 5a40
00000010: eaec 68c2 9166 10c1 a647 84c2 e0bc 8cc2
00000020: b777 c3c2 838d ddc1 e326 ea40 a4e4 a2c0

bias f4 [3]
9.29668 -78.30176 11.013709
00000000: 34bf 1441 809a 9cc2 2738 3041
