experiments/models/midcircle-0.00058084-1650915347.pth (torch, 2835 bytes, 4 tensors)

weight f4 [6, 2]
00000000: e8aa a2c0 4c14 f4bf a35e 6b40 da5d 0740
00000010: 1a20 67c1 f823 fdbc 5f91 d5bf d9fe 1a41
00000020: f807 063e e2e1 15c1 cb8a cac0 2922 9e3f
-5.0833626 -1.9068694 3.6776512 2.1151032 -14.445337 -0.03090094 -1.6684989 9.687219
0.13088977 -9.367647 -6.3294425 1.2354175

bias f4 [6]
00000000: 4c4a 9b40 f89e a4bf 6200 9940 9c5f 17c0
00000010: b804 c140 cbe8 7d40
4.8528194 -1.2861013 4.7812967 -2.3652105 6.031826 3.9673336

weight f4 [3, 6]
00000000: 8cd8 b240 4e8f e7c0 316b 9e40 d783 00c1
00000010: c61d 03c1 e0d5 1e41 c1c4 7abe 2d2e 923e
00000020: 68c2 85be 2e6d 723e 6a00 b23e ac2a 203e
00000030: 986b 05c1 052e 2240 d7dd 1cc1 d048 fbc0
00000040: 409f cdc0 63d5 7cc0
5.588934 -7.2362432 4.950585 -8.032187 -8.194769 9.927216 -0.24489118 0.28550854
-0.26124883 0.23674461 0.3476594 0.15641278 -8.338768 2.5340588 -9.80416 -7.8526382
-6.4256897 -3.950524

bias f4 [3]
00000000: ad1f 5440 ffcf 9e3e ad55 5840
3.3144333 0.31018063 3.3802292
