experiments/models/midcircle-1.3819e-05-1652227528.pth (torch, 2771 bytes, 4 tensors)

weight f4 [3, 2]
-1.8231224 -30.6249 1.2625178 -0.011672005 -0.8067882 33.366894
00000000: 135c e9bf ccff f4c1 2f9a a13f f03b 3fbc
00000010: ac89 4ebf b377 0542

bias f4 [3]
10.573819 -0.4922946 -22.37655
00000000: 5d2e 2941 0a0e fcbe 2d03 b3c1

weight f4 [3, 3]
11.334396 -62.891552 11.028865 -0.026861496 0.16495624 0.4634642 11.133819 64.10783
11.519686
00000000: b059 3541 f390 7bc2 3b76 3041 a40c dcbc
00000010: 4aea 283e 2e4b ed3e 1f24 3241 3537 8042
00000020: a250 3841

bias f4 [3]
15.730596 -0.5469256 0.04797491
00000000: 85b0 7b41 5103 0cbf 5781 443d
