experiments/models/midcircle-rev-6.6761e-06-1652227800.pth (torch, 2771 bytes, 4 tensors)

weight f4 [3, 2]
0	0xbe4ad6c5	-0.1980849
1	0x410972d7	8.590537
2	0x40b049ca	5.5090075
3	0x4016bfd8	2.3554592
4	0xc0bdf8a1	-5.9366
5	0x3ff67d23	1.9256939

bias f4 [3]
0	0xc02d140b	-2.7043483
1	0xc0900247	-4.500278
2	0x3fada796	1.3566768

weight f4 [3, 3]
0	0x4178f54e	15.559889
1	0xc2155978	-37.33737
2	0x4244ec93	49.23103
3	0x42232ca2	40.793587
4	0xc226b58e	-41.6773
5	0xc225f01c	-41.48448
6	0x4189437b	17.15795
7	0x4228aa9a	42.166603
8	0xc24aa1d2	-50.658028

bias f4 [3]
0	0x420a084b	34.5081
1	0xc25bda67	-54.963284
2	0x41b7fe81	22.99927
