experiments/models/plain-0.0038861-1650542198.pth (torch, 2771 bytes, 4 tensors)

weight f4 [4, 2]
3.432824 -5.701798 -1.2701623 1.4088291 4.46251 -0.025286745 1.354292 4.561768
00000000: 63b3 5b40 2175 b6c0 ae94 a2bf 8354 b43f
00000010: e2cc 8e40 2626 cfbc 7159 ad3f 01fa 9140

bias f4 [4]
0.016811872 -2.405448 -0.88876796 -3.3183274
00000000: 0db9 893c dcf2 19c0 4c86 63bf 7a5f 54c0

weight f4 [2, 4]
-11.230778 10.537122 10.70722 -14.600326 -9.802001 6.494005 10.176697 -8.263762
00000000: 44b1 33c1 0d98 2841 c650 2b41 ef9a 69c1
00000010: ffd4 1cc1 e4ce cf40 c0d3 2241 5f38 04c1

bias f4 [2]
-8.12354 -6.0069237
00000000: 05fa 01c1 b838 c0c0
