experiments/models/plain-0.00046161-1650915348.pth (torch, 2835 bytes, 4 tensors)

weight f4 [6, 2]
0	0x414cf5b0	12.809982
1	0xbe6995c7	-0.22811042
2	0xc11816f3	-9.505603
3	0xbdc8bfb3	-0.09802189
4	0xbfd99823	-1.6999553
5	0xbfd94449	-1.6973964
6	0xc0192eee	-2.3934894
7	0xc03e8806	-2.9770522
8	0xbf07f893	-0.5311367
9	0xc1252e37	-10.323783
10	0x3d4ae2a0	0.049532533
11	0xc162bc09	-14.170907

bias f4 [6]
0	0xc085b852	-4.17875
1	0x40ce6de0	6.4509125
2	0xc09a9aeb	-4.831411
3	0xc07d2a4d	-3.9557068
4	0x40e2b718	7.0848503
5	0x409b9ad7	4.8626513

weight f4 [3, 6]
0	0xc11c8bc2	-9.784121
1	0x417fc87f	15.986449
2	0xbf17775a	-0.5916649
3	0x3ee2c38d	0.44289818
4	0xc131e2e2	-11.117891
5	0x4127a426	10.477575
6	0x415a3843	13.638736
7	0x416e0ce4	14.878147
8	0x414a1e6a	12.632425
9	0x4138f5db	11.560023
10	0x41518b07	13.096442
11	0xc1438086	-12.218878
12	0x4177eacb	15.4948225
13	0xc13e2a2e	-11.885298
14	0xbefdd281	-0.49574664
15	0xbfd9fbd0	-1.7029972
16	0xc1362fa8	-11.386635
17	0x41311db9	11.0697565

bias f4 [3]
0	0x3f3cd1c8	0.737576
1	0xc11e9389	-9.911019
2	0x3f055963	0.5208952
