experiments/models/rectangles-0.001751-1651865856.pth (torch, 2771 bytes, 4 tensors)

weight f4 [4, 2]
-4.4894586 3.7441325 -1.0496565 -3.6880891 -0.9916453 -0.9896785 -3.238285 -1.0647646
00000000: a5a9 8fc0 de9f 6f40 255b 86bf a709 6cc0
00000010: 77dc 7dbf 925b 7dbf 1040 4fc0 354a 88bf

bias f4 [4]
-0.6634308 1.1429584 -7.9968596 3.2666948
00000000: 9ad6 29bf 764c 923f 46e6 ffc0 8711 5140

weight f4 [2, 4]
-13.511184 -17.937433 33.056107 56.950325 -10.803838 -55.055984 29.565763 12.169655
00000000: cf2d 58c1 dd7f 8fc1 7439 0442 22cd 6342
00000010: 85dc 2cc1 5439 5cc2 af86 ec41 e8b6 4241

bias f4 [2]
-32.179935 -29.605213
00000000: 41b8 00c2 7ad7 ecc1
