experiments/models/rectangles-0.0031799-1651938780.pth (torch, 2771 bytes, 4 tensors)

weight f4 [4, 2]
000000 6b 38 83 40 c5 d3 45 3f 2e 5d ce be 85 65 ce be
       4.100637 0.7727626 -0.40305465 -0.40311828
000010 a7 39 64 40 a3 bb a7 c0 fc b5 cb bf 11 8c 59 c0
       3.5660188 -5.241655 -1.5914912 -3.399174

bias f4 [4]
000000 10 72 94 bf 6c a8 f6 c0 ef be 92 be 2d d3 50 40
       -1.1597309 -7.7080593 -0.28661296 3.2628891

weight f4 [2, 4]
000000 5e 8b 50 41 23 11 8d 41 90 06 43 c1 b4 01 fc 41
       13.034025 17.633368 -12.189102 31.500832
000010 8a fc d8 41 7e f1 72 41 72 2b 24 c1 e9 07 18 41
       27.12331 15.183958 -10.260607 9.501931

bias f4 [2]
000000 37 d9 88 c1 13 89 6c c1
       -17.106062 -14.783465
