experiments/models/rectangles-0.0032385-1652126792.pth (torch, 2771 bytes, 4 tensors)

weight f4 [4, 2]
00000000: 92c4 8b40 a08e 89c0 6302 62bf 0018 72bf
00000010: 5d7b 033f ce52 5540 1b8c 83c0 88b6 ddbf
4.3677454 -4.2986603 -0.8828489 -0.9456787 0.5136011 3.333179 -4.1108527 -1.7321329

bias f4 [4]
00000000: 605b 44bf 5ef8 01c1 7ca8 38c0 4b77 c73f
-0.7670193 -8.1231365 -2.8852835 1.558328

weight f4 [2, 4]
00000000: 043d 94c1 ca0e 0e42 15c0 86c2 3e78 9fc1
00000010: 9a8d 67c1 2837 4f42 c405 8ec1 1aae c6c2
-18.529793 35.514442 -67.37516 -19.933712 -14.472071 51.803864 -17.752815 -99.34004

bias f4 [2]
00000000: 9f80 0ac2 5ec6 4ec2
-34.625607 -51.693718
