experiments/models/rectangles-rev-0.001935-1643478641.pth (torch, 2683 bytes, 4 tensors)

weight f4 [4, 2]
00000000: 8a3b 90c0 09e1 2440 f91f 383e 404b 4f3e
00000010: 266f 1340 0f04 1340 a595 32c0 7c88 9340
-4.507268 2.576235 0.17980947 0.2024355 2.303659 2.2971227 -2.7903836 4.6104107

bias f4 [4]
00000000: f4f3 dd3f 7b03 fb40 dc21 97bf 844e dcbf
1.7340074 7.844175 -1.1807208 -1.7211461

weight f4 [2, 4]
00000000: 77ab b541 beee 9640 6fbe 1dc2 96d2 b5c1
00000010: 4a88 4c41 9f99 23c1 7a20 8641 ae48 4ac1
22.708723 4.7166433 -39.43597 -22.727825 12.783274 -10.225005 16.765858 -12.642744

bias f4 [2]
00000000: d4d3 8e40 0ca0 19c1
4.463358 -9.601574
