experiments/models/rectangles-unconstrained-6.0647e-05-1652184029.pth (torch, 2771 bytes, 4 tensors)

weight f4 [3, 2]
000000 13 98 c4 3f f6 11 ea 3f d8 15 16 c0 dd 56 aa 3d
       1.5358909 1.8286731 -2.3450832 0.08317349
000010 1c 90 27 40 fe 78 75 c0
       2.6181707 -3.8355098

bias f4 [3]
000000 4a af 0a c0 95 c0 20 3f 93 c3 95 be
       -2.1669488 0.62793857 -0.29250774

weight f4 [2, 3]
000000 be 24 4f c2 cf 76 10 c2 14 1f c8 c1 b3 8e 9f c1
       -51.78588 -36.116024 -25.015175 -19.944677
000010 50 c3 b7 c1 58 f3 83 c1
       -22.970367 -16.49382

bias f4 [2]
000000 c9 44 50 c2 f6 52 b9 c1
       -52.067173 -23.165508
