experiments/models/rectangles-3.4338e-05-1652185201.pth (torch, 2771 bytes, 4 tensors)

weight f4 [3, 2]
0	0xc05c9e7e	-3.4471736
1	0x4076473d	3.848098
2	0x40382212	2.8770795
3	0x3fbddbdb	1.483272
4	0xbf68d9ab	-0.90957135
5	0xc01959b7	-2.3961008

bias f4 [3]
0	0x3f2a8c32	0.6662017
1	0xbf98d9c0	-1.1941452
2	0x400e32b2	2.2218442

weight f4 [2, 3]
0	0x41ae0bbd	21.755732
1	0x41e8a0c3	29.078497
2	0x4281d660	64.9187
3	0x4194a2ea	18.579548
4	0x429fb1aa	79.847
5	0x41d6a0ae	26.828457

bias f4 [2]
0	0xc280b7fb	-64.35934
1	0xc2a36d62	-81.71364
