experiments/models/rectangles-0.0021715-1652110066.pth (torch, 2771 bytes, 4 tensors)

weight f4 [4, 2]
4.220133 -5.1676416 -0.06709955 -0.7758746 1.4019443 5.0154786 -4.668581 -1.3777105
00000000: 540b 8740 525d a5c0 7d6b 89bd b89f 46bf
00000010: e972 b33f cd7e a040 0465 95c0 d158 b0bf

bias f4 [4]
-0.5171997 -8.164602 -4.0806937 1.5830703
00000000: 3367 04bf 36a2 02c1 0b95 82c0 0ca2 ca3f

weight f4 [2, 4]
-11.8661175 17.617115 -30.787283 -11.9392185 -9.693136 17.912977 -8.0433 -33.361835
00000000: 9edb 3dc1 daef 8c41 5b4c f6c1 0a07 3fc1
00000010: 1617 1bc1 c74d 8f41 5bb1 00c1 8572 05c2

bias f4 [2]
-16.728344 -17.802803
00000000: a6d3 85c1 246c 8ec1
