experiments/models/rectangles-rev-2.4068e-05-1652183508.pth (torch, 2771 bytes, 4 tensors)

weight f4 [4, 2]
0	0x3feb3e2c	1.8378348
1	0x401b9343	2.4308631
2	0x403f7d74	2.992032
3	0xbfd76f26	-1.6830795
4	0x4037bfb4	2.8710756
5	0xc0713d1f	-3.7693555
6	0xc02e00b8	-2.7187939
7	0xc008b0e5	-2.1357968

bias f4 [4]
0	0x40d82565	6.754565
1	0xbf19b211	-0.6003733
2	0xbd2d0a10	-0.042245924
3	0x4060a93e	3.5103297

weight f4 [2, 4]
0	0xc1b41340	-22.5094
1	0x425ae534	54.72383
2	0xc295bce0	-74.8689
3	0xc140c4c7	-12.048041
4	0xc19ea8b0	-19.832367
5	0x42306308	44.09671
6	0xc21dad81	-39.419437
7	0x41fdebe1	31.740175

bias f4 [2]
0	0xc1907e8c	-18.06179
1	0xc16143d5	-14.079061
