experiments/models/rectangles-unconstrained-3.0497e-05-1652181957.pth (torch, 2771 bytes, 4 tensors)

weight f4 [4, 2]
0	0x4014f4d7	2.3274438
1	0x405d5ea4	3.4589014
2	0xc086a7e4	-4.2079945
3	0x3f91e324	1.1397443
4	0xc00ca21b	-2.1973941
5	0x40bbf07d	5.8731065
6	0xbfa1548c	-1.2603927
7	0xbff9c3f4	-1.9512925

bias f4 [4]
0	0xc0073654	-2.112691
1	0x4040ab5e	3.0104594
2	0xc067f995	-3.6246083
3	0xc0cfa598	-6.488964

weight f4 [2, 4]
0	0x42a8fce7	84.49395
1	0x41c21e35	24.26475
2	0xc184be61	-16.592958
3	0x426f8df2	59.88862
4	0x4124e9f9	10.307122
5	0x41a88a0b	21.067404
6	0xc16c8dd4	-14.784626
7	0x418b1ec2	17.390018

bias f4 [2]
0	0xc23cc5a4	-47.19301
1	0xc1722afa	-15.135492
