experiments/models/rectangles-0.0014133-1652126075.pth (torch, 2771 bytes, 4 tensors)

weight f4 [4, 2]
00000000: d908 9b40 6001 9fc0 75f9 46bf 465e 5abf
00000010: 1425 b53f 24ef 4940 0036 4fc0 e341 d2bf
4.84483 -4.968918 -0.7772439 -0.853001 1.415194 3.155221 -3.237671 -1.6426357

bias f4 [4]
00000000: f8f9 82bf 1de2 03c1 74cb 46c0 10d7 b73f
-1.0232534 -8.242703 -3.1061678 1.4362507

weight f4 [2, 4]
00000000: 89f1 82c1 3c30 0342 dc78 76c2 3b66 a8c1
00000010: 3130 7bc1 1c0b 2b42 f063 a2c1 5f0a a8c2
-16.367937 32.797104 -61.618027 -21.049917 -15.6992655 42.76085 -20.298798 -84.020256

bias f4 [2]
00000000: fe43 ffc1 549a 2ac2
-31.9082 -42.65071
