experiments/models/rectangles-rev-5.6127e-05-1652185443.pth (torch, 2771 bytes, 4 tensors)

weight f4 [3, 2]
-2.2564068 -3.0972273 -1.4735779 2.7042792 3.0633717 -3.2088828
00000000: f868 10c0 f938 46c0 339e bcbf e912 2d40
00000010: 480e 4440 565e 4dc0

bias f4 [3]
0.91563874 -0.6327156 -0.46135533
00000000: 4d67 6a3f a6f9 21bf c436 ecbe

weight f4 [2, 3]
61.005867 -59.12542 -53.151867 -25.343742 -33.65025 -30.5928
00000000: 0206 7442 6e80 6cc2 839b 54c2 fcbf cac1
00000010: db99 06c2 0ebe f4c1

bias f4 [2]
37.87366 -29.596472
00000000: a17e 1742 93c5 ecc1
