experiments/models/rectangles-2.0862e-05-1652182837.pth (torch, 2771 bytes, 4 tensors)

weight f4 [4, 2]
2.8631012 2.930534 -0.40331948 -3.2293508 0.9620024 0.04388095 -3.9822538 4.688772
00000000: 0d3d 3740 de8d 3b40 e47f cebe afad 4ec0
00000010: ca45 763f 83bc 333d 3fdd 7ec0 6c0a 9640

bias f4 [4]
-4.2638392 1.5793226 6.3305335 -1.7340605
00000000: 5f71 88c0 3e27 ca3f bb93 ca40 b2f5 ddbf

weight f4 [2, 4]
-24.664738 -70.781944 -40.316887 -23.442478 -60.216507 -26.33963 -34.22665 -17.770378
00000000: 6251 c5c1 5b90 8dc2 7e44 21c2 328a bbc1
00000010: b4dd 70c2 90b7 d2c1 17e8 08c2 bc29 8ec1

bias f4 [2]
-33.388092 -30.064821
00000000: 688d 05c2 c184 f0c1
