experiments/models/rectangles-rev-0.0025637-1651937145.pth (torch, 2771 bytes, 4 tensors)

weight f4 [4, 2]
000000 a4 86 d0 40 fb 4a 04 c0 a4 fd a3 c0 b1 fd a8 40
       6.5164356 -2.0670764 -5.124712 5.280968
000010 d1 ad bf bf cd e9 02 c1 88 77 80 bf 82 0b a4 40
       -1.497492 -8.18208 -1.0036478 5.126405

bias f4 [4]
000000 1c 21 55 c0 a1 dc b1 bf a8 d0 0c 40 ea 87 33 c0
       -3.3301458 -1.3895456 2.2002354 -2.8051705

weight f4 [2, 4]
000000 ed dd 1c c1 88 81 b7 bd 2b 69 e0 40 8d af 1f c1
       -9.804181 -0.08960253 7.012838 -9.980359
000010 fe 48 be c0 56 50 a9 c0 b9 be da c0 d5 96 2a bf
       -5.94641 -5.2910566 -6.8357816 -0.666364

bias f4 [2]
000000 96 ec 53 c0 9b d7 1d c1
       -3.311315 -9.865138
