experiments/models/rectangles-0.0011049-1652127777.pth (torch, 2771 bytes, 4 tensors)

weight f4 [4, 2]
00000000: da3b 7140 9cac 81c0 5f7e 4dbf 390c 6cbf
00000010: b76a 513f fa42 5240 afa2 6ac0 c9f0 b3bf
3.769278 -4.0523205 -0.8027095 -0.9220615 0.8180346 3.285338 -3.6661794 -1.4057857

bias f4 [4]
00000000: 3368 1abf 3c91 02c1 8eca 3ac0 be41 a93f
-0.60315245 -8.160458 -2.918613 1.3223188

weight f4 [2, 4]
00000000: f83b a9c1 cc98 1442 c689 8bc2 4ea1 c3c1
00000010: 8e18 d0c1 8ede 6e42 64f1 f7c1 ef80 e3c2
-21.154282 37.149216 -69.76909 -24.453762 -26.01199 59.71734 -30.992867 -113.75182

bias f4 [2]
00000000: 960a 11c2 c66d 6ec2
-36.260338 -59.6072
