experiments/models/rev-midcircle-0.00018767-1650915347.pth (torch, 2835 bytes, 4 tensors)

weight f4 [6, 2]
-3.6528924 -6.4590125 1.2566005 1.0707576 -1.439043 -1.0850366 -3.788115 7.704661
-5.752094 -0.05110134 -8.5969515 -0.5647634
00000000: fdc8 69c0 3bb0 cec0 49d8 a03f 960e 893f
00000010: 9032 b8bf 7be2 8abf 7a70 72c0 958c f640
00000020: 2711 b8c0 a44f 51bd 1d8d 09c1 5694 10bf

bias f4 [6]
5.9449387 5.45834 -5.021151 -0.85047513 3.4436104 3.3537755
00000000: f03c be40 b9aa ae40 45ad a0c0 bdb8 59bf
00000010: 1d64 5c40 42a4 5640

weight f4 [3, 6]
0.8607561 1.9966644 -1.8774506 1.932323 63.196762 3.5215425 17.611298 -8.591881
7.7751856 16.362118 -0.22435942 -16.627153 3.0021446 -0.054239765 0.15489659 -3.8549001
-10.487814 -26.352118
00000000: 835a 5c3f b392 ff3f 4d50 f0bf 5c56 f73f
00000010: 7cc9 7c42 f460 6140 f0e3 8c41 5878 09c1
00000020: 52ce f840 9ee5 8241 7abe 65be 6904 85c1
00000030: 2323 4040 842a 5ebd 369d 1e3e afb6 76c0
00000040: 16ce 27c1 23d1 d2c1

bias f4 [3]
1.7187452 -7.799732 0.20245352
00000000: d8ff db3f 6897 f9c0 fa4f 4f3e
