models/rectangles-direct-0.0032671-1643473141.pth (torch, 2683 bytes, 4 tensors)

weight f4 [4, 2]
000000 60 66 5c c0 a4 c5 fd 40 3a a0 88 c0 84 a8 98 c0
       -3.4437485 7.930376 -4.269559 -4.7705708
000010 76 b6 a6 c0 e2 ed 0a 3f d9 89 b4 bc 6b 19 1f 3f
       -5.209773 0.5426923 -0.022038387 0.6214816

bias f4 [4]
000000 62 28 c2 3c f9 49 87 40 76 4c 32 3f 1e 2e 37 40
       0.023700897 4.22778 0.6964792 2.8621898

weight f4 [2, 4]
000000 49 f2 28 41 10 a4 3c 41 13 c6 4e c1 85 41 0e c1
       10.559152 11.790054 -12.923358 -8.890996
000010 3c 41 b3 40 19 4f 48 40 0b 48 11 c1 6e 11 b0 c0
       5.601713 3.1298277 -9.080089 -5.5021276

bias f4 [2]
000000 97 28 f8 c0 e1 47 a6 c0
       -7.754955 -5.1962743
