models/rectangles-direct-0.002715-1643474464.pth (torch, 2683 bytes, 4 tensors)

weight f4 [4, 2]
0	0x4084c99f	4.149612
1	0x3f9c68a3	1.2219433
2	0xbeac1199	-0.33607176
3	0xbe9c2b76	-0.30501908
4	0xc0845e60	-4.1365204
5	0x40c29a37	6.081325
6	0xbfd3a621	-1.6535074
7	0xc0c70207	-6.2189975

bias f4 [4]
0	0xbfb0df8b	-1.381822
1	0xc0191b1d	-2.3922799
2	0x3f867879	1.0505515
3	0x406b1007	3.6728532

weight f4 [2, 4]
0	0x414ab7fa	12.669916
1	0x41109fef	9.039046
2	0x413e3c8b	11.889781
3	0x41669e95	14.413716
4	0x41310c1c	11.065456
5	0x40d2c42d	6.5864472
6	0x41219245	10.09821
7	0x41061ebe	8.382505

bias f4 [2]
0	0xc10c43b3	-8.766528
1	0xc0bdf74b	-5.936437
