models/rectangles-0.0018772-1643478438.pth (torch, 2683 bytes, 4 tensors)

weight f4 [4, 2]
000000 d1 99 cd bf cf 5a ab 40 c5 7e fb bf 2f a9 0d c0
       -1.6062566 5.354835 -1.9648062 -2.2134511
000010 c0 61 9f be 97 55 a5 be e6 b0 a2 c0 40 b0 1b 3f
       -0.31129265 -0.32291862 -5.084094 0.6081581

bias f4 [4]
000000 29 ad de be ad 69 39 40 e1 ce fc c0 8b 13 47 3f
       -0.43491486 2.897075 -7.900254 0.77764195

weight f4 [2, 4]
000000 e7 60 40 41 f8 b0 07 42 47 9e a9 41 60 21 48 c1
       12.023658 33.92282 21.202284 -12.508148
000010 5a b3 7f 41 9e 48 07 41 36 ef 84 41 c1 19 a9 c1
       15.981287 8.455229 16.616802 -21.137575

bias f4 [2]
000000 9c ac 9a c1 09 63 7c c1
       -19.334282 -15.7741785
